checkpoints/seq2seq_attention_model.pt (torch_old, 103437 bytes, 21 tensors)

encoder.embedding.weight f4 [13, 8]
-0.5278145 -0.28475723 0.48929614 -0.13756229 -1.2182771 -1.5669059 -1.1402382 -2.5249417
-0.4583252 0.8356824 0.3776011 -0.26851407 0.14227025 0.27178344 1.6028643 -0.7058294
-2.943702 -1.1486357 0.13578181 -0.23102567 0.22179264 -0.7091909 -1.0844697 1.4188663
-0.5302325 -0.40969068 0.068495624 1.0241765 -0.070769995 -0.079764105 -0.33521348 -2.2101822
-0.13666488 -0.23042259 -0.9122838 1.2913164 0.9991176 -0.6080518 0.62260455 0.76145655
-0.12971008 0.9085321 -1.7100487 -0.07688945 0.055754922 0.94712186 2.051001 -0.14074033
1.2695386 0.5661041 1.6802415 1.3924623 -0.9943868 -0.08097644 0.674278 -0.12318164
0.5863539 -1.7475107 1.1816837 -1.9854984 1.2802672 0.79971766 2.3221 0.10366642
-0.66262686 -1.3997309 0.11297838 0.8554196 -3.261703 0.7601008 1.1190479 -0.40376595
0.53080153 -0.55940884 -1.6621723 0.25508404 -0.12333588 0.47710037 -0.35517928 -0.7947524
0.64667773 -1.4884356 0.14624739 -0.91723067 0.4186837 1.5753478 0.22007228 1.4161955
1.3359666 1.5955535 -1.5963688 -1.198956 -0.39740634 -1.1030023 0.47312173 0.94129354
1.7990972 -0.3096365 -0.25785795 -1.720301 0.9605401 -0.38804603 0.20786281 -0.41786027
00000000: da1e 07bf b3cb 91be 0685 fa3e 21dd 0cbe
00000010: 81f0 9bbf 5f90 c8bf 53f3 91bf a598 21c0
00000020: 9aa9 eabe 48ef 553f ee54 c13e ad7a 89be
00000030: 4baf 113e 3327 8b3e a82a cd3f 3cb1 34bf
00000040: 9d65 3cc0 7f06 93bf 630a 0b3e fe91 6cbe
00000050: 9c1d 633e 898d 35bf e7cf 8abf 699d b53f
00000060: 51bd 07bf fac2 d1be 6f47 8c3d 3718 833f
00000070: dcef 90bd 5d5b a3bd 1aa1 abbe a073 0dc0
00000080: e1f1 0bbe e6f3 6bbe 6e8b 69bf db49 a53f
00000090: 2cc6 7f3f 48a9 1bbf 0363 1f3f d1ee 423f
000000a0: b8d2 04be 8f95 683f e0e2 dabf 3778 9dbd
000000b0: 465f 643d 9476 723f 9a43 0340 3c1e 10be
000000c0: 3e80 a23f 33ec 103f 2712 d73f 343c b23f
000000d0: 2290 7ebf fad6 a5bd 7c9d 2c3f a846 fcbd
000000e0: 4a1b 163f 6eae dfbf 6941 973f d024 febf
000000f0: ccdf a33f 4cba 4c3f 499d 1440 0f4f d43d
00000100: eaa1 29bf 622a b3bf 3561 e73d c7fc 5a3f
00000110: bebf 50c0 f795 423f f63c 8f3f 69ba cebe
00000120: 9ce2 073f 6b35 0fbf 10c2 d4bf 609a 823e
00000130: 8697 fcbd 8046 f43e 0fda b5be e574 4bbf
00000140: ac8c 253f 0f85 bebf e0c1 153e a1cf 6abf
00000150: b65d d63e ffa4 c93f a15a 613e e545 b53f
00000160: f400 ab3f 193b cc3f d055 ccbf 6477 99bf
00000170: d878 cbbe 2e2f 8dbf 033d f23e 9df8 703f
00000180: d148 e63f ad88 9ebe f505 84be d332 dcbf
00000190: f5e5 753f f8ad c6be fdd9 543e c8f1 d5be

encoder.rnn.weight_ih_l0 f4 [96, 8]
-0.018510895 -0.101040535 -0.042602893 -0.01644213 0.11029995 -0.07533274 0.14653248 -0.095938526
-0.25587237 -0.23254208 0.20419961 0.07711807 -0.01955954 -0.17211723 -0.27712232 -0.080095425
-0.08613549 -0.060399093 0.1686109 -0.16642572 0.19526921 0.018262463 -0.044297595 0.00421864
-0.12892406 0.5997417 0.089339934 0.089420624 -0.09386998 -0.28020412 0.34387106 0.52659154
-0.03332218 -0.057754293 0.14496513 0.04732172 0.19146597 -0.0334326 0.122831166 0.12423257
-0.17206368 0.15267871 -0.09820398 0.06262954 -0.5147645 -0.033731535 -0.0056824447 0.14153926
0.1339369 0.1612877 -0.02229158 -0.003240539 -0.06621727 0.21314424 0.3092422 -0.05696949
0.051690876 -0.022830417 -0.12299919 0.112358674 -0.20305042 0.1446436 0.108858615 -0.08242611
-0.03986589 -0.026294775 -0.049236026 0.09512046 -0.21288647 0.16355701 -0.027417127 -0.06829129
0.07198269 -0.050995264 0.046195548 -0.09862532 -0.20012455 0.073068954 -0.09602322 -0.28569975
-0.07654001 -0.19969708 0.03323569 -0.033914905 0.09581678 0.027857173 -0.07255271 -0.05922259
-0.09476218 0.096953526 -0.30410796 0.16997972 -0.002328185 -0.1169981 0.13761432 -0.26482692
0.26206234 0.0994708 -0.10834216 -0.013918067 -0.026205007 0.2734432 0.3883844 -0.14482002
0.03699254 -0.2235728 0.07486785 0.11357731 -0.16380817 0.06639544 0.111509845 -0.2282011
0.15000787 0.030838327 0.006390462 0.12672769 -0.04639218 -0.009390592 0.14828525 0.33491698
-0.14751913 -0.5646677 0.04710235 0.06413902 0.1393423 -0.15308678 -0.19863947 -0.17144106
0.24187975 -0.00112665 0.047535975 -0.02977135 -0.04547647 -0.22738352 -0.083823375 0.038242012
0.2780775 0.11665075 0.076075755 -0.03787475 0.07436413 0.09420683 0.29076675 -0.05678401
-0.07652962 -0.04562722 -0.107098795 -0.017835116 0.1235336 0.0010610179 0.027039833 0.07898629
-0.14833035 0.020725556 0.08321499 -0.06085066 -0.09457106 0.07196086 0.1872105 -0.24441957
0.11556888 -0.13478297 0.07950023 -0.0827751 -0.17466688 -0.20977487 0.07328102 -0.11629921
-0.3346327 0.12464605 -0.48616174 0.37906316 -0.33725595 -0.1893934 -0.16821647 -0.23071219
0.13161926 0.09412878 0.0036042016 -0.24996 -0.0721554 -0.12083316 0.099676386 -0.26511094
0.3208851 0.07486056 -0.16208251 0.08823758 -0.12426784 0.08229327 0.047523383 -0.08768471
-0.14731674 0.052601118 0.06916554 0.18026124 -0.5060446 -0.06461379 -0.19821045 -0.3600222
-0.26700357 0.1887905 0.18953364 -0.13288881 -0.3228563 -0.38364014 -0.11864819 -0.17954847
0.07033656 -0.3574228 0.29247838 -0.115601584 0.020797113 -0.12423071 -0.30209538 -0.053448703
0.070930876 -0.13464274 -0.1704094 0.042482644 0.090950675 -0.10155142 0.06454324 0.15612598
0.23287728 0.13835016 0.10273446 -0.32032558 -0.36916304 0.34590837 0.017919742 -0.3768188
0.14611344 0.21637765 0.037031252 0.07924413 0.0006129225 0.15130125 0.2009726 -0.05228825
-0.06711445 0.11279122 0.13844875 -0.026756775 -0.18070713 0.2060027 0.019844688 0.03758329
0.20064566 0.038839858 -0.2442123 0.060873937 -0.23284768 0.005676384 0.065534994 0.1373187
00000000: 29a4 97bc 57ee cebd 5f80 2ebd a5b1 86bc
00000010: f1e4 e13d 0d48 9abd 9c0c 163e 6b7b c4bd
00000020: b401 83be 831f 6ebe b419 513e 14f0 9d3d
00000030: 543b a0bc 803f 30be fae2 8dbe 1209 a4bd
00000040: ce67 b0bd 0a65 77bd 56a8 2c3e 816b 2abe
00000050: a7f4 473e 299b 953c 6571 35bd 843c 8a3b
00000060: ab04 04be ac88 193f dbf7 b63d 2922 b73d
00000070: e73e c0bd ea76 8fbe de0f b03e b4ce 063f
00000080: d77c 08bd c48f 6cbd bd71 143e 6bd4 413d
00000090: a80f 443e 9ff0 08bd e88e fb3d a56d fe3d
000000a0: 7631 30be cf57 1c3e 2b1f c9bd eb43 803d
000000b0: 9bc7 03bf 142a 0abd cd33 babb abef 103e
000000c0: c126 093e 9a28 253e d59c b6bc 395f 54bb
000000d0: ec9c 87bd 7c42 5a3e fe54 9e3e d758 69bd
000000e0: d0b9 533d db06 bbbc 00e7 fbbd 4e1c e63d
000000f0: 73ec 4fbe 741d 143e 44f1 de3d 05cf a8bd
00000100: 6a4a 23bd 2468 d7bc b7ab 49bd 84ce c23d
00000110: e9fe 59be 7d7b 273e e299 e0bc 4edc 8bbd
00000120: a96b 933d 69e0 50bd 8b37 3d3d 12fc c9bd
00000130: 73ed 4cbe 2da5 953d d2a7 c4bd 3d47 92be
00000140: 02c1 9cbd 647d 4cbe 2622 083d 5bea 0abd
00000150: 973b c43d ba34 e43c 8496 94bd 6393 72bd
00000160: ac12 c2bd 928f c63d 0ab4 9bbe 2a0f 2e3e
00000170: 7694 18bb b39c efbd c5ea 0c3e 6597 87be
00000180: 092d 863e 59b7 cb3d 7fe2 ddbd 9b08 64bc
00000190: e2ab d6bc bf00 8c3e 52da c63e b34b 14be
000001a0: 7d85 173d 45f0 64be 5154 993d 399b e83d
000001b0: 54bd 27be 55fa 873d 465f e43d 8dad 69be
000001c0: aa9b 193e a9a0 fc3c 1567 d13b e7c4 013e
000001d0: ba05 3ebd ffda 19bc 17d8 173e 3d7a ab3e
000001e0: 410f 17be 108e 10bf 65ee 403d 525b 833d
000001f0: bfaf 0e3e c8c2 1cbe 2568 4bbe 3f8e 2fbe
00000200: 53af 773e 1aac 93ba 15b5 423d 0ce3 f3bc
00000210: 8945 3abd 3ad7 68be 97ab abbd a8a3 1c3d
00000220: 2d60 8e3e 97e6 ee3d 9bcd 9b3d 8e22 1bbd
00000230: 394c 983d 83ef c03d 61df 943e 5a96 68bd
00000240: 90bb 9cbd 9ce3 3abd 9d56 dbbd f31a 92bc
00000250: 2fff fc3d da11 8b3a a482 dd3c 90c3 a13d
00000260: e9e3 17be a4c8 a93c 9f6c aa3d 8b3e 79bd
00000270: 79ae c1bd 3760 933d 1cb4 3f3e 2049 7abe
00000280: 61af ec3d 8c04 0abe 04d1 a23d fe85 a9bd
00000290: e0db 32be 39cf 56be 5c14 963d 482e eebd
000002a0: fa54 abbe 6e46 ff3d 31ea f8be 9114 c23e
000002b0: d0ac acbe 58f0 41be f040 2cbe d13f 6cbe
000002c0: 33c7 063e 97c6 c03d 7834 6c3b 84f5 7fbe
000002d0: 36c6 93bd 6077 f7bd 2223 cc3d 9fbc 87be
000002e0: 0d4b a43e 7e50 993d f5f8 25be e8b5 b43d
000002f0: 2380 febd 6089 a83d e1a7 423d 0b94 b3bd
00000300: 33da 16be 4574 573d aaa6 8d3d 6796 383e
00000310: 248c 01bf 3c54 84bd aef7 4abe d454 b8be
00000320: b1b4 88be 4c52 413e 1b15 423e 0114 08be
00000330: 6c4d a5be 7b6c c4be d2fd f2bd 8edb 37be
00000340: 9d0c 903d 1f00 b7be babf 953e 86c0 ecbd
00000350: b55e aa3c ac6c febd 3fac 9abe 07ed 5abd
00000360: 3544 913d c9df 09be cd7f 2ebe 4802 2e3d
00000370: 5944 ba3d 31fa cfbd 3f2f 843d 7ddf 1f3e
00000380: 6277 6e3e aaab 0d3e 7266 d23d b701 a4be
00000390: f002 bdbe e71a b13e 6ccc 923c 65ee c0be
000003a0: c39e 153e 1a92 5d3e 15ae 173d bf4a a23d
000003b0: 88ac 203a b7ee 1a3e c3cb 4d3e 342c 56bd
000003c0: 4d73 89bd 15ff e63d 82c5 0d3e 0631 dbbc
000003d0: 4a0b 39be 5ff2 523e 5491 a23c f0f0 193d
000003e0: 0e76 4d3e 8b16 1f3d ca12 7abe f356 793d
000003f0: 9f6f 6ebe f600 ba3b 3637 863d 469d 0c3e

encoder.rnn.weight_hh_l0 f4 [96, 32]
0.15406616 -0.09866482 -0.08310183 -0.02850522 0.010228318 -0.016971454 -0.003994641 -0.036128018
-0.16409948 -0.06593516 -0.19520696 -0.04432467 -0.16093354 0.14191496 0.1307016 -0.055826657
0.0941988 -0.13223703 -0.027323416 -0.13960241 0.16153221 -0.15460001 -0.20957047 -0.15366514
0.092219174 -0.06981198 0.046471477 0.045677237 -0.025972594 0.0143180555 0.15062593 0.17027701
-0.04652652 0.19709821 -0.065727666 0.17947145 -0.11353521 -0.26550207 0.13084882 -0.2632712
-0.16271165 0.009116267 -0.08206882 -0.016808856 -0.09806196 -0.22735438 -0.14856271 -0.039055232
0.071206555 0.022483563 0.022107039 0.059325546 0.09261628 -0.049431674 -0.06142763 -0.07488588
0.06411906 -0.22363788 -0.20707257 0.21967706 0.063675776 0.2660879 0.09256279 -0.3007512
0.096990176 0.10179013 -0.12476691 -0.24901621 0.2444167 -0.026070733 -0.07918563 0.29062158
-0.1878222 0.1821353 -0.17376623 0.0024068286 -0.1487675 0.12255254 0.09628708 -0.09229801
0.19041245 -0.08076984 0.11670353 -0.06914782 0.19463244 -0.028202303 0.13160335 -0.07381307
0.037756294 0.18151163 -0.13549505 -0.011274124 -0.1260744 -0.30574018 0.13094333 0.011960327
0.089799635 0.21017858 -0.10390931 0.01546066 -0.13256176 0.08380006 0.06887741 -0.16072795
0.11733878 -0.1016115 -0.12373879 -0.123652704 -0.021049526 -0.1878901 -0.20926774 -0.0775182
0.019369118 0.19198358 0.039399404 0.14922647 0.021275613 0.042494893 0.044255663 0.043523796
-0.10062716 0.085222125 -0.0075168554 0.16435727 -0.037945617 0.25940692 0.084877774 0.03227823
-0.028424272 -0.13172628 -0.0035684686 -0.057798024 0.18518165 -0.042314254 0.06983084 0.19430548
-0.02619697 0.13070446 0.07045788 0.037128802 0.04331833 0.082189105 0.18383524 -0.0672773
0.29124308 -0.2028256 0.022145994 -0.18663143 0.016713329 -0.080427706 0.10699484 -0.09848133
0.114656195 0.27512968 0.15164508 -0.25178745 -0.22207329 -0.19627897 0.2788871 -0.027222255
0.05738558 0.050871994 0.10794162 -0.05123849 -3.8716214e-05 -0.17777812 -0.027560322 0.16157806
0.0076155006 -0.0256859 -0.03360819 -0.12179716 0.04274116 0.14407709 -0.19386351 -0.006067082
-0.17831723 0.10428062 0.04979207 -0.12517571 -0.058743585 0.07604204 -0.18954785 -0.1799227
0.3196464 0.0567456 -0.31702763 0.0711794 0.05993954 -0.14214051 -0.009233265 0.053575307
0.16915473 -0.17010097 -0.1007777 -0.22214817 0.016970875 0.014890624 0.06929466 0.12995107
-0.11865449 0.27297273 0.084770694 -0.10210355 0.0033929478 0.22011459 0.17114367 0.1342763
-0.15380676 -0.16630295 -0.14516485 0.123342685 -0.21029595 0.13318272 -0.16047351 -0.107042946
0.014465815 0.0060212896 -0.039402682 0.015821874 0.08748218 -0.27539212 -0.10446887 0.21301937
0.040202573 0.036836773 -0.31098953 0.18331107 0.14279874 0.20680816 -0.12996309 0.0753236
-0.0064300816 -0.043015726 -0.23072837 0.07078348 -0.10421951 0.005914269 -0.1360243 0.062273107
0.15697788 -0.05269438 0.051161073 0.03110429 0.064382836 -0.30312842 -0.17762259 -0.1578946
0.1522033 -0.013291168 -0.26949492 -0.18104938 -0.057795588 -0.18592155 0.036062147 0.104869395
00000000: 85c3 1d3e c810 cabd 4b31 aabd c783 e9bc
00000010: ad94 273c b807 8bbc 7ae5 82bb f9fa 13bd
00000020: b209 28be 0309 87bd 55e4 47be c98d 35bd
00000030: c3cb 24be 2852 113e a4d6 053e 7eaa 64bd
00000040: 4deb c03d 2569 07be 5bd5 dfbc eff3 0ebe
00000050: b368 253e 774f 1ebe a499 56be 655a 1dbe
00000060: 68dd bc3d 95f9 8ebd e058 3e3d 0e18 3b3d
00000070: 7ac4 d4bc 4796 6a3c af3d 1a3e 195d 2e3e
00000080: 9892 3ebd 1dd4 493e 3a9c 86bd 5dc7 373e
00000090: 2685 e8bd e3ef 87be 3cfd 053e 7ccb 86be
000000a0: e29d 26be 655c 153c b313 a8bd bab2 89bc
000000b0: b5d4 c8bd 96cf 68be d320 18be 61f8 1fbd
000000c0: bed4 913d 732f b83c d219 b53c 58ff 723d
000000d0: 9bad bd3d de78 4abd 8a9b 7bbd c55d 99bd
000000e0: db50 833d 5401 65be d50a 54be 06f3 603e
000000f0: 7268 823d ac3c 883e 8f91 bd3d 10fc 99be
00000100: c9a2 c63d 5877 d03d cb85 ffbd 1bfe 7ebe
00000110: 5f48 7a3e 4a92 d5bc 132c a2bd 5acc 943e
00000120: 7654 40be ad81 3a3e c6ef 31be e2bb 1d3b
00000130: 8256 18be d3fc fa3d 2932 c53d bd06 bdbd
00000140: 7bfb 423e a86a a5bd 4302 ef3d 5f9d 8dbd
00000150: ba4d 473e 8408 e7bc 07c3 063e 4f2b 97bd
00000160: 58a6 1a3d 2fde 393e 37bf 0abe 1ab7 38bc
00000170: a619 01be fa89 9cbe 0216 063e 3ff5 433c
00000180: dfe8 b73d 0e39 573e 68ce d4bd b54e 7d3c
00000190: 45be 07be 5e9f ab3d 990f 8d3d de95 24be
000001a0: 504f f03d b119 d0bd c36a fdbd a13d fdbd
000001b0: 0e70 acbc 4366 40be 484a 56be ddc1 9ebd
000001c0: fcab 9e3c 5897 443e 4561 213d d3ce 183e
000001d0: 324a ae3c 200f 2e3d 6d45 353d 0246 323d
000001e0: 9d15 cebd f088 ae3d f44f f6bb 464d 283e
000001f0: dd6c 1bbd fcd0 843e 66d4 ad3d 2d36 043d
00000200: 05da e8bc 41e3 06be f8dc 69bb 9fbd 6cbd
00000210: 42a0 3d3e b651 2dbd 7903 8f3d 04f8 463e
00000220: 079b d6bc 64d7 053e 394c 903d 5f14 183d
00000230: 906e 313d c352 a83d 4e3f 3c3e aec8 89bd
00000240: d01d 953e 84b1 4fbe 846b b53c 4f1c 3fbe
00000250: 64ea 883c 48b7 a4bd 1c20 db3d 94b0 c9bd
00000260: ded0 ea3d ccdd 8c3e d948 1b3e 49ea 80be
00000270: 2e67 63be 5bfd 48be 4aca 8e3e 3501 dfbc
00000280: 240d 6b3d 275f 503d 7f10 dd3d 73df 51bd
00000290: 3863 22b8 780b 36be 2fc6 e1bc b874 253e
000002a0: 738b f93b 3d6b d2bc bea8 09bd ca70 f9bd
000002b0: 5b11 2f3d f288 133e 2884 46be 5fce c6bb
000002c0: cb98 36be 1491 d53d c5f2 4b3d 102e 00be
000002d0: 1d9d 70bd eebb 9b3d d518 42be a83d 38be
000002e0: b1a8 a33e 136e 683d 7251 a2be 81c6 913d
000002f0: 2a83 753d 488d 11be 1f47 17bc c871 5b3d
00000300: e636 2d3e f32e 2ebe 8a64 cebd cf7a 63be
00000310: 8106 8b3c cef7 733c 5cea 8d3d e511 053e
00000320: 2001 f3bd 15c3 8b3e 429c ad3d ab1b d1bd
00000330: 385c 5e3b b865 613e 4940 2f3e ba7f 093e
00000340: 857f 1dbe 524b 2abe 18a6 14be 179b fc3d
00000350: d257 57be 0d61 083e 2b53 24be 5539 dbbd
00000360: 0702 6d3c 3d4e c53b b564 21bd e09c 813c
00000370: db29 b33d 3200 8dbe c6f3 d5bd c021 5a3e
00000380: 74ab 243d 28e2 163d 053a 9fbe e6b5 3b3e
00000390: d539 123e 85c5 533e 0b15 05be 4243 9a3d
000003a0: 6fb3 d2bb 4231 30bd 0f44 6cbe eef6 903d
000003b0: 0a71 d5bd 7ccc c13b f449 0bbe 1612 7f3d
000003c0: cfbe 203e 10d6 57bd 468e 513d 6dce fe3c
000003d0: 26db 833d a633 9bbe b2e2 35be 1faf 21be
000003e0: 2fdb 1b3e 33c3 59bc 3dfb 89be 0265 39be
000003f0: 11bb 6cbd 3862 3ebe e7b5 133d c4c5 d63d

encoder.rnn.bias_ih_l0 f4 [96]
0.13735177 0.10604003 0.22563031 0.082763016 0.01946887 0.15893121 0.20027843 0.118415214
0.056911103 0.07313598 -0.0102610905 0.09054391 0.01935214 -0.010716705 0.034999553 0.14364654
0.19475722 -0.15645735 0.117299385 0.02450289 0.02441831 -0.018038074 -0.10288067 0.12268516
-0.024596913 -0.23624672 -0.11260235 0.06432097 0.123586714 -0.031909145 -0.07067147 0.2955265
0.09529961 -0.3991634 -0.03763926 -0.27512378 0.15868966 -0.42143595 -0.056393225 0.23416166
0.30986968 -0.1538948 0.10562092 -0.107613035 0.13505474 -0.3829108 0.18549292 -0.56105524
-0.038876805 0.19361158 0.17372146 -0.09341627 -0.42336747 -0.35257763 -0.51964325 0.076855876
-0.4208304 -0.28536725 -0.4813858 -0.22033855 -0.41266656 0.24841708 0.12264946 0.08139817
0.12807584 0.025065355 -0.12892176 -0.11345538 0.22704263 -0.11656494 -0.09648091 0.19098595
-0.10197687 0.19122851 -0.16323677 0.19606246 -0.18885247 0.0033632007 -0.12035485 0.17207901
0.16225256 -0.20119976 -0.011939017 -0.11072574 0.07664657 -0.106460035 -0.14020422 -0.094651565
0.0066552656 0.1856239 -0.16071086 0.16807625 -0.074234754 -0.0210845 -0.092573725 -0.0405039
00000000: f1a5 0c3e 842b d93d a20b 673e a87f a93d
00000010: 2e7d 9f3c ddbe 223e ca15 4d3e ad83 f23d
00000020: 9e1b 693d 51c8 953d 221e 28bc 166f b93d
00000030: 6188 9e3c 1e95 2fbc b15b 0f3d 1418 133e
00000040: 706e 473e 5b36 20be a93a f03d 49ba c83c
00000050: e808 c83c 95c4 93bc 1ab3 d2bd 5b42 fb3d
00000060: 777f c9bc a9ea 71be 109c e6bd b6ba 833d
00000070: 081b fd3d 2ab3 02bd 34bc 90bd 404f 973e
00000080: 712c c33d 255f ccbe a02b 1abd 06dd 8cbe
00000090: 8b7f 223e 74c6 d7be 95fc 66bd 13c8 6f3e
000000a0: 3da7 9e3e 9996 1dbe c84f d83d 3964 dcbd
000000b0: ca4b 0a3e e20c c4be dbf1 3d3e 51a1 0fbf
000000c0: 493d 1fbd 1d42 463e 0ae4 313e 0851 bfbd
000000d0: 9fc3 d8be 0e85 b4be 5707 05bf 9d66 9d3d
000000e0: 1577 d7be a81b 92be 3378 f6be 6ea0 61be
000000f0: 0849 d3be 0c61 7e3e a42f fb3d 15b4 a63d
00000100: 5026 033e dc55 cd3c 1104 04be 4b5b e8bd
00000110: dd7d 683e 99b9 eebd c997 c5bd d291 433e
00000120: 40d9 d0bd 68d1 433e 8a27 27be 99c4 483e
00000130: 8b62 41be 2569 5c3b 9b7c f6bd 7b35 303e
00000140: 8925 263e 4f07 4ebe de9b 43bc 2dc4 e2bd
00000150: e0f8 9c3d b807 dabd b291 0fbe aed8 c1bd
00000160: 6a14 da3b 3114 3e3e 6391 24be 2e1c 2c3e
00000170: 6408 98bd 67b9 acbc 4b97 bdbd 6be7 25bd

encoder.rnn.bias_hh_l0 f4 [96]
0.20243214 -0.047392525 0.24915242 0.045274466 0.015637055 0.25121468 0.012350577 0.20943749
0.14219473 0.16539633 0.15699972 0.2103525 -0.097169824 -0.17939919 0.26655123 -0.1089638
0.104952574 0.08887291 0.15202574 -0.029114097 0.053677943 0.15357736 0.08100045 0.061875008
0.021341717 -0.1771398 -0.06788757 0.16952579 0.012469978 0.15869969 0.13159788 0.017887412
0.12052102 -0.33257318 0.22741209 -0.20689443 0.12625007 -0.17588691 0.0889717 0.013859413
0.28260615 -0.058516487 -0.22340782 -0.17562038 0.06714413 -0.24570169 0.1363423 -0.5952695
-0.11322053 0.10513499 0.10203277 -0.005906471 -0.369198 -0.31472343 -0.43673262 0.17831954
-0.59442705 -0.08453755 -0.55987585 -0.10684684 -0.43393475 0.22315653 0.015509479 -0.06596821
0.14064936 0.1776612 -0.23511918 -0.109767266 0.10638274 0.039487176 -0.14033474 -0.02204168
-0.15679748 0.2484608 -0.15812941 0.16187939 -0.15312102 -0.06382785 0.024679175 -0.054585747
-0.051421717 0.047587745 0.026934939 -0.18532541 0.19024886 -0.22740363 -0.1633208 -0.10215568
-0.15364397 -0.038619652 -0.06465446 0.07150096 -0.07668337 -0.14058794 -0.03087172 0.28976548
00000000: 5f4a 4f3e aa1e 42bd d021 7f3e b871 393d
00000010: 4819 803c 369f 803e 135a 4a3c c876 563e
00000020: 7f9b 113e a85d 293e 89c4 203e a566 573e
00000030: f900 c7bd 6cb4 37be 6779 883e 6a28 dfbd
00000040: 60f1 d63d 0003 b63d a3ac 1b3e b080 eebc
00000050: 67dd 5b3d 6243 1d3e 90e3 a53d a670 7d3d
00000060: d3d4 ae3c 2364 35be a308 8bbd 2b98 2d3e
00000070: e14e 4c3c 2c82 223e 98c1 063e 9f88 923c
00000080: b9d3 f63d 0847 aabe b7de 683e 22dc 53be
00000090: b347 013e b31b 34be cb36 b63d 9712 633c
000000a0: c1b1 903e fcae 6fbd 05c5 64be d4d5 33be
000000b0: dd82 893d 3999 7bbe 519d 0b3e 9563 18bf
000000c0: 2ae0 e7bd 0351 d73d 8ff6 d03d 128b c1bb
000000d0: 8507 bdbe 6e23 a1be 6b9b dfbe 6699 363e
000000e0: 5f2c 18bf 0622 adbd 0654 0fbf 84d2 dabd
000000f0: b22c debe 2583 643e 781b 7e3c 571a 87bd
00000100: 6306 103e d1ec 353e 15c3 70be a9cd e0bd
00000110: 32df d93d 4ebd 213d e9b3 0fbe c190 b4bc
00000120: 858f 20be 826c 7e3e adec 21be b6c3 253e
00000130: c2cb 1cbe 2db8 82bd fb2b ca3c 4e95 5fbd
00000140: 949f 52bd 5eeb 423d a9a6 dc3c f2c5 3dbe
00000150: 99d0 423e 7fdc 68be 913d 27be ff36 d1bd
00000160: d854 1dbe a42f 1ebd 8f69 84bd 186f 923d
00000170: 2c0c 9dbd 49f6 0fbe b0e6 fcbc 245c 943e

encoder.rnn.weight_ih_l0_reverse f4 [96, 8]
0.13309969 0.015472229 0.007261616 -0.10708374 -0.034391254 0.20825186 0.5867436 0.02455131
-0.23360644 -0.21181536 0.23169169 0.21452712 -0.24469188 -0.19204469 -0.19432645 -0.10494864
0.16315028 -0.3723937 -0.2133779 0.07978014 -0.1533162 -0.22188424 -0.05416298 -0.0584503
-0.074769296 -0.04730802 0.23567009 0.03055035 -0.045547508 -0.16283451 0.14167354 0.0628948
0.31890166 0.5195085 0.09643838 0.004118551 -0.3228752 -0.32140052 0.13878973 0.108558096
0.037174825 0.3244538 -0.25325334 -0.32402438 0.08956298 0.143702 0.062761225 0.024374045
0.26982427 0.068459876 -0.052249286 -0.05133774 0.025241602 0.07887775 0.13211599 0.007845979
0.081098095 -0.0026875155 -0.23783314 0.108080424 0.29310188 -0.036047 0.066711664 0.2512403
0.06836867 0.11739277 -0.024581177 0.0697806 -0.20937383 0.2643629 0.2367026 0.23519853
0.007925858 -0.104091614 0.13189861 -0.08600389 0.3403539 -0.17060123 0.02390506 0.5390779
0.24404131 -0.18446667 -0.011790346 0.04378226 -0.0546409 -8.547478e-05 0.05266431 0.16148576
0.098612785 -0.33205906 0.15661645 0.14437202 -0.2168524 0.61491287 0.18478931 -0.2962781
-0.22931029 -0.3295457 -0.5216305 -0.25507683 0.17075469 0.10325331 0.08915065 -0.07930919
-0.10946665 0.46075833 0.2802265 0.028172806 -0.38636675 0.028265903 0.07074797 -0.083573684
0.055047765 0.14762875 0.21129377 0.069082424 -0.19649933 -0.10178177 0.038549677 0.013532342
-0.4149807 -0.28277647 0.355434 0.05706307 -0.32614893 -0.13582548 -0.45779976 0.16785602
0.018578835 -0.036932178 0.049051303 0.026503475 0.005284458 -0.10847884 -0.15200935 0.059118297
-0.115940124 -0.11318204 -0.02855039 -0.035229843 -0.039616358 -0.10564311 -0.13394685 0.07509759
0.2897172 -0.06193725 0.23753865 0.30354506 -0.08692375 -0.039098147 0.11912297 -0.1496371
0.28186095 0.09638701 -0.011336754 -0.08954289 -0.042177003 0.3845591 0.52005714 -0.052830845
0.17770551 0.044253252 0.16955449 -0.20672499 -0.24841782 -0.058976606 0.06217151 -0.0065830997
-0.019276163 -0.09875599 -0.03155872 0.12902161 -0.08846737 -0.18605167 -0.06527131 0.039143216
0.106086224 -0.16553499 -0.24633439 -0.0085883215 -0.026321357 -0.11309313 -0.06953217 0.2073541
0.24008656 0.20553863 -0.14208667 0.04361453 -0.0039005151 -0.2768584 -0.12521367 -0.11670385
0.01955128 0.07706718 -0.012508704 0.19245996 -0.009515641 -0.04753138 0.03155101 0.05973832
0.024740119 -0.12750518 -0.28181434 0.101315506 -0.05854224 0.08999952 0.12526312 0.15822306
-0.17410247 -0.3277461 -0.06081984 -0.10057031 0.09337658 -0.03888592 -0.048128355 0.0076377094
-0.17292154 -0.3290205 0.026972221 0.09778098 0.21377155 0.42014587 -0.08389981 0.2081835
0.21879669 -0.06574844 -0.0003140489 0.16571964 -0.1722468 -0.14306955 0.04389714 0.087265305
-0.036211893 -0.21321744 -0.0028437958 -0.03101617 0.005994033 0.080220826 0.09828814 -0.14009425
0.026351577 0.053012032 -0.16053201 -0.050245214 -0.1330088 -0.16670237 -0.03926385 -0.030417016
-0.0024920648 -0.036944356 0.06640502 0.057961613 -0.1130618 -0.044996575 0.055580456 0.0068565244
00000000: 494b 083e 3b7f 7d3c daf2 ed3b b84e dbbd
00000010: d8dd 0cbd fa3f 553e d434 163f d41f c93c
00000020: 8736 6fbe 20e6 58be 9640 6d3e ffac 5b3e
00000030: 8290 7abe 5da7 44be 83fd 46be 50ef d6bd
00000040: de10 273e 63aa bebe bc7f 5abe c563 a33d
00000050: ecfe 1cbe 9f35 63be 00da 5dbd 9569 6fbd
00000060: a520 99bd 0ec6 41bd 8053 713e ba44 fa3c
00000070: 0690 3abd 17be 26be de12 113e fdce 803d
00000080: 1447 a33e 82fe 043f 7c81 c53d e9f4 863b
00000090: e64f a5be 9c8e a4be e51e 0e3e b553 de3d
000000a0: a144 183d cf1e a63e 6caa 81be 86e6 a5be
000000b0: cc6c b73d 9e26 133e f588 803d 14ac c73c
000000c0: 6826 8a3e b134 8c3d 5903 56bd 8647 52bd
000000d0: 7ac7 ce3c a88a a13d 6a49 073e 6c8c 003c
000000e0: c216 a63d 0721 30bb 888a 73be 4559 dd3d
000000f0: 7311 963e 05a6 13bd 20a0 883d 92a2 803e
00000100: e004 8c3d 9f6b f03d 775e c9bc 22e9 8e3d
00000110: 1866 56be 935a 873e 2b62 723e e2d7 703e
00000120: 75db 013c fc2d d5bd 6e10 073e cf22 b0bd
00000130: de42 ae3e 17b2 2ebe 8bd4 c33c 0201 0a3f
00000140: f7e5 793e d5e4 3cbe 4c2c 41bc 0755 333d
00000150: 23cf 5fbd ec40 b3b8 88b6 573d 865c 253e
00000160: 80f5 c93d a503 aabe 1060 203e 42d6 133e
00000170: 8e0e 5ebe ee6a 1d3f 6939 3d3e c3b1 97be
00000180: 51d0 6abe 37ba a8be 9489 05bf 6e99 82be
00000190: 51da 2e3e 7976 d33d 9e94 b63d db6c a2bd
000001a0: 0d30 e0bd 84e8 eb3e d979 8f3e a8ca e63c
000001b0: ddd1 c5be e58d e73c 50e4 903d ae28 abbd
000001c0: c479 613d fe2b 173e 655d 583e 167b 8d3d
000001d0: 1f37 49be f672 d0bd 44e6 1d3d c2b6 5d3c
000001e0: 5a78 d4be 14c8 90be 72fb b53e f7ba 693d
000001f0: fefc a6be d615 0bbe bb64 eabe 73e2 2b3e
00000200: a432 983c 3246 17bd 05ea 483d d11d d93c
00000210: 3f29 ad3b 272a debd 57a8 1bbe 0726 723d
00000220: 0472 edbd fccb e7bd 82e2 e9bc 2b4d 10bd
00000230: c344 22bd 6a5b d8bd 5d29 09be c4cc 993d
00000240: d055 943e eab1 7dbd 553d 733e 426a 9b3e
00000250: 1405 b2bd 6125 20bd bef6 f33d 783a 19be
00000260: 1450 903e 8d66 c53d cbbd 39bc 4362 b7bd
00000270: cbc1 2cbd eee4 c43e 7722 053f 2865 58bd
00000280: 6ff8 353e e642 353d b19f 2d3e b7af 53be
00000290: 3e61 7ebe 7491 71bd 8ea7 7e3d 0bb7 d7bb
000002a0: 0be9 9dbc 9540 cabd b743 01bd 3e1e 043e
000002b0: 612e b5bd 5484 3ebe f7ac 85bd a354 203d
000002c0: bc43 d93d 0182 29be 153f 7cbe 08b6 0cbc
000002d0: e39f d7bc 5f9d e7bd e266 8ebd a254 543e
000002e0: 40d9 753e b878 523e 2b7f 11be 26a5 323d
000002f0: c99f 7fbb 62c0 8dbe 0338 00be 6e02 efbd
00000300: 022a a03c 66d5 9d3d 4ff1 4cbc 3914 453e
00000310: 7ee7 1bbc 44b0 42bd a23b 013d 2bb0 743d
00000320: caab ca3c b890 02be f849 90be 817e cf3d
00000330: fdc9 6fbd ab51 b83d fa44 003e 3a05 223e
00000340: eb47 32be 56ce a7be 391e 79bd cff7 cdbd
00000350: 383c bf3d d846 1fbd 3d22 45bd c045 fa3b
00000360: 5812 31be 6075 a8be d9f4 dc3c 6541 c83d
00000370: eee6 5a3e 5c1d d73e aad3 abbd 0e2e 553e
00000380: 3d0c 603e 1ea7 86bd eea6 a4b9 69b2 293e
00000390: 7761 30be d380 12be 7dcd 333d 27b8 b23d
000003a0: ec52 14bd ac55 5abe fa5e 3abb 9f15 febc
000003b0: 9869 c43b d14a a43d 4b4b c93d de74 0fbe
000003c0: 43df d73c 2523 593d 8162 24be edcd 4dbd
000003d0: 7533 08be 07b4 2abe 21d3 20bd 1b2d f9bc
000003e0: e951 23bb f752 17bd 5bff 873d 2869 6d3d
000003f0: f28c e7bd 544e 38bd 55a8 633d b2ac e03b

encoder.rnn.weight_hh_l0_reverse f4 [96, 32]
0.20963505 -0.051846292 -0.066022135 -0.007176894 0.424009 -0.14079733 0.39041334 -0.061375596
0.24083026 -0.064786516 0.21598898 -0.208305 0.239507 -0.29126772 -0.022950705 0.20215632
-0.23543455 -0.313658 0.4255983 0.26115698 0.10890089 -0.022513453 0.069920555 -0.36243832
0.34503353 0.00622252 -0.059538204 0.11694524 0.020317521 -0.1335843 0.28523585 -0.17358054
-0.06370814 -0.06766536 0.10266409 -0.029043557 0.010858803 0.10165858 0.108804494 -0.11176574
0.16116217 0.06205313 0.14009827 0.07819078 -0.10121338 0.1327521 0.19271417 -0.051449824
-0.1300153 0.03786457 -0.08736888 0.08467699 -0.17536052 0.07169731 -0.17990194 -0.1123402
0.052189525 -0.015557428 0.0019562063 -0.14884618 0.09291906 -0.15365933 0.25446334 -0.19603106
-0.12135948 0.0052055824 0.027878795 -0.23996493 0.22934711 0.123281844 -0.008559684 -0.19313782
0.09145236 0.15020114 0.13513084 0.117312804 0.081801504 -0.071942374 0.00556583 -0.1105439
-0.052199382 0.12364787 -0.0826033 0.09124132 0.18788429 -0.078784965 -0.16757262 0.13505019
0.0010505342 -0.0664994 0.015131785 -0.15683617 0.118669644 0.046422526 0.18731853 -0.14371483
0.15747395 0.092964344 0.18584973 -0.2666264 0.11731746 -0.135437 0.28358197 -0.34358236
0.15495545 0.01727897 0.13940126 -0.27370003 0.07416314 0.2733597 -0.13754022 -0.060950365
-0.119744584 -0.015350373 -0.08995471 0.07855831 0.2066955 -0.2341766 -0.12361465 -0.21375483
0.28917345 -0.39765167 0.34743854 0.16188487 -0.10598816 0.044754658 0.3749001 -0.04105137
0.03163742 -0.14120111 0.1530427 -0.03618137 -0.027408756 -0.13415234 0.09517799 -0.07310091
0.060122434 0.10909761 -0.061476555 -0.20311317 0.14376588 -0.13192837 -0.07396532 0.25493744
0.06028816 0.118403606 -0.10715196 0.020750739 0.14539364 -0.0510367 0.009636008 -0.053990513
0.26448315 0.0764959 0.014243541 -0.018562976 0.2892431 0.018509462 0.15056264 -0.12821412
0.1039987 0.00909569 0.15435804 0.14651406 0.005135226 -0.110036656 -0.076059 -0.13262159
0.024468817 -0.00800059 -0.21048388 0.0101406025 -0.15487304 -0.14381135 -0.104937606 -0.04169965
0.055511698 0.09660686 0.0074807927 0.10970472 -0.08051683 -0.122414015 0.043895103 -0.08584006
-0.07350288 0.15487774 0.054296896 -0.09926779 -0.007688784 -0.06255171 -0.015593598 0.091527976
0.24349879 0.21742775 0.12096818 -0.09074841 -0.026287712 -0.064027525 0.20189355 -0.08155014
-0.109394215 -0.034619592 -0.18033175 -0.37742606 -0.0050617517 -0.14337373 -0.1158077 0.24012136
-0.022931812 0.13299556 0.14343584 0.015712036 -0.035006914 -0.4505114 -0.31866562 0.117702514
-0.068622395 -0.165782 0.31518564 -0.19906107 0.07000635 0.2448496 0.17211841 0.029798942
0.3074125 0.2053359 -0.11327187 -0.054306533 0.021917095 0.008072765 0.07882818 -0.08596891
0.09855691 -0.17098862 -0.08261822 -0.11206753 -0.053284205 -0.24804054 -0.19091742 0.15461946
-0.103481054 -0.2020588 0.1731133 0.38646704 0.053769358 0.044212874 -0.27057204 -0.11509884
-0.100771725 0.04605961 0.26242617 0.17259735 0.089927785 0.042031284 0.11448823 -0.31739432
00000000: 92aa 563e c75c 54bd 9d36 87bd 272c ebbb
00000010: b517 d93e 2d2d 10be 42e4 c73e fa64 7bbd
00000020: 359c 763e cbae 84bd 372c 5d3e e84d 55be
00000030: 5341 753e 0b21 95be 1e03 bcbc 1102 4f3e
00000040: c115 71be c897 a0be 05e8 d93e 5eb6 853e
00000050: 6e07 df3d 226e b8bc 8232 8f3d 8491 b9be
00000060: 3ca8 b03e 48e6 cb3b 55de 73bd fc80 ef3d
00000070: ee70 a63c 53ca 08be 6f0a 923e 19bf 31be
00000080: 6a79 82bd 2394 8abd 8d41 d23d c1ec edbc
00000090: 1fe9 313c 6032 d03d e4d4 de3d 70e5 e4bd
000000a0: b207 253e 6c2b 7e3d ec75 0f3e 7d22 a03d
000000b0: f648 cfbd 2bf0 073e dd56 453e 0dbd 52bd
000000c0: bb22 05be e117 1b3d 75ee b2bd 216b ad3d
000000d0: b591 33be 0ad6 923d 3738 38be 9e12 e6bd
000000e0: afc4 553d 95e4 7ebc b233 003b 226b 18be
000000f0: 594c be3d df58 1dbe 0549 823e 5ebc 48be
00000100: 528b f8bd 9793 aa3b 1262 e43c 5eb9 75be
00000110: f8d9 6a3e 317b fc3d eb3d 0cbc ecc5 45be
00000120: 604b bb3d 54ce 193e bd5f 0a3e b241 f03d
00000130: 8c87 a73d 8656 93bd 9161 b63b d764 e2bd
00000140: 05cf 55bd 183b fd3d eb2b a9bd bbdc ba3d
00000150: bd64 403e 035a a1bd 2898 2bbe 994a 0a3e
00000160: 14b2 893a d630 88bd 4eeb 773c a999 20be
00000170: 1209 f33d 8c25 3e3d 6ed0 3f3e fb29 13be
00000180: da40 213e 1764 be3d 644f 3e3e 4183 88be
00000190: 2344 f03d ffaf 0abe a831 913e 07ea afbe
000001a0: a4ac 1e3e a08c 8d3c 34bf 0e3e 6922 8cbe
000001b0: d8e2 973d cdf5 8b3e 58d7 0cbe 17a7 79bd
000001c0: a63c f5bd 2280 7bbc 2d3a b8bd 2ee3 a03d
000001d0: fca7 533e fecb 6fbe ad29 fdbd 8ce2 5abe
000001e0: 8b0e 943e 0099 cbbe 77e3 b13e 26c5 253e
000001f0: 5210 d9bd a950 373d e8f2 bf3e 7b25 28bd
00000200: 3d96 013d 0697 10be 3ab7 1c3e eb32 14bd
00000210: 5488 e0bc 3b5f 09be aeec c23d eeb5 95bd
00000220: f142 763d 916e df3d d7ce 7bbd e6fc 4fbe
00000230: 5d37 133e 3b18 07be 217b 97bd 2987 823e
00000240: b8f0 763d 977d f23d 7d72 dbbd 74fd a93c
00000250: 12e2 143e dc0b 51bd 59e0 1d3c 2825 5dbd
00000260: 566a 873e e2a9 9c3d be5d 693c 6211 98bc
00000270: ac17 943e 28a1 973c 182d 1a3e 904a 03be
00000280: 45fd d43d 1706 153c 0910 1e3e c807 163e
00000290: 6645 a83b e65a e1bd d2c4 9bbd f4cd 07be
000002a0: d472 c83c e814 03bc 1689 57be c524 263c
000002b0: 0a97 1ebe 4843 13be 87e9 d6bd 41cd 2abd
000002c0: 3c60 633d d1d9 c53d 7021 f53b deac e03d
000002d0: 02e6 a4bd 33b4 fabd 5acb 333d eacc afbd
000002e0: ae88 96bd 4598 1e3e 6c66 5e3d e94c cbbd
000002f0: 32f2 fbbb 1c1b 80bd 4a7c 7fbc 0573 bb3d
00000300: bf57 793e 61a5 5e3e 2abe f73d 4dda b9bd
00000310: 5459 d7bc dd20 83bd 2fbd 4e3e c303 a7bd
00000320: 130a e0bd 46cd 0dbd e3a8 38be fd3d c1be
00000330: 0ddd a5bb 90d0 12be 962c edbd 60e2 753e
00000340: 7fdb bbbc fd2f 083e d8e0 123e 87b6 803c
00000350: 6963 0fbd 6ea9 e6be 2428 a3be 040e f13d
00000360: e689 8cbd c2c2 29be 0360 a13e aad6 4bbe
00000370: 7d5f 8f3d dbb9 7a3e cf3f 303e e91c f43c
00000380: 2c65 9d3e 9343 523e 15fb e7bd 8770 5ebd
00000390: 7b8b b33c a143 043c ab70 a13d 7810 b0bd
000003a0: 35d8 c93d a417 2fbe be33 a9bd a983 e5bd
000003b0: 8a40 5abd 57fe 7dbe db7f 43be 9054 1e3e
000003c0: e0ed d3bd 81e8 4ebe 9d44 313e 02df c53e
000003d0: 423d 5c3d 8f18 353d 6b88 8abe f1b8 ebbd
000003e0: 6861 cebd 00a9 3c3d b95c 863e 5cbd 303e
000003f0: 0f2c b83d ff28 2c3d ce78 ea3d 8281 a2be

encoder.rnn.bias_ih_l0_reverse f4 [96]
0.2719564 -0.069967076 0.19369286 0.02964104 -0.17056192 0.042512104 0.058832254 -0.010882822
-0.056815453 0.05239162 0.15516311 0.18479852 0.045875728 -0.12334997 0.26089525 -0.03559909
0.25855455 0.27457565 0.027714554 0.26142246 0.1098576 0.2365758 -0.094582394 -0.05051383
0.08457958 0.32926643 0.14293565 0.003922587 0.13003099 0.23028025 0.12400514 0.2549951
0.0581917 -0.13918401 0.08419249 -0.0029508607 -0.3685644 -0.18696325 -0.20646463 0.17416309
4.3803288e-05 -0.4163753 0.09160556 -0.18380183 -0.20233652 -0.07142848 0.010946897 0.11145765
0.25210127 -0.18726736 -0.050351217 0.048147596 -0.2493448 -0.07359311 0.08069748 -0.21592402
-0.21016802 -0.00793463 0.02303066 -0.18705122 -0.16021404 0.044140145 -0.1372798 0.26466674
-0.08931992 -0.008542511 0.011688288 0.09460472 0.15135732 -0.07122771 0.17423506 -0.055562314
0.19144313 -0.11700462 0.17275508 0.06273396 0.23794806 0.1723785 -0.20931911 0.15416282
-0.14281665 -0.078443654 -0.021405214 0.15079899 0.12010847 -0.0280893 0.05589484 -0.13067724
0.019266393 -0.11883239 0.062576756 0.20888412 -0.00015180158 -0.1152149 0.019526036 -0.08684344
00000000: df3d 8b3e e64a 8fbd 6c57 463e c4d1 f23c
00000010: c9a7 2ebe 2c21 2e3d 17fa 703d dd4d 32bc
00000020: 52b7 68bd 9898 563d 14e3 1e3e d33b 3d3e
00000030: 30e8 3b3d e99e fcbd 1094 853e 5ad0 11bd
00000040: 4361 843e 2e95 8c3e a209 e33c 2ad9 853e
00000050: 05fd e03d ed40 723e 6ab4 c1bd 97e7 4ebd
00000060: 0f38 ad3d 9c95 a83e b95d 123e 0b89 803b
00000070: d826 053e 96ce 6b3e 68f6 fd3d b88e 823e
00000080: 6c5a 6e3d 4186 0ebe 1d6d ac3d 3a63 41bb
00000090: 79b4 bcbe 4b73 3fbe 776b 53be cf57 323e
000000a0: 6cb9 3738 252f d5be b29b bb3d 8c36 3cbe
000000b0: 4e31 4fbe 1849 92bd 9d5a 333c e943 e43d
000000c0: 6b13 813e 04c3 3fbe 143d 4ebd 6a36 453d
000000d0: 3e54 7fbe fcb7 96bd b844 a53d 301b 5dbe
000000e0: 4936 57be 4000 02bc cbaa bc3c 5b8a 3fbe
000000f0: 260f 24be 4ccc 343d 1393 0cbe 6682 873e
00000100: 5ded b6bd e3f5 0bbc 3c80 3f3c 1fc0 c13d
00000110: 6afd 1a3e d5df 91bd ad6a 323e 4f95 63bd
00000120: ab09 443e 1ea0 efbd b5e6 303e aa7a 803d
00000130: a8a8 733e fd83 303e c057 56be dcdc 1d3e
00000140: 873e 12be 11a7 a0bd fd59 afbc 0d6b 1a3e
00000150: 6efb f53d 881b e6bc fdf1 643d 41d0 05be
00000160: 8ed4 9d3c 655e f3bd 3e28 803d b8e5 553e
00000170: ed2c 1fb9 caf5 ebbd 11f5 9f3c f9da b1bd

encoder.rnn.bias_hh_l0_reverse f4 [96]
0.17733009 -0.10093409 0.15462953 0.085817486 -0.095511734 -0.1249276 0.053803403 0.27006373
0.007237237 -0.04372646 -0.050171908 0.14367478 -0.059832264 -0.15774809 -0.041968465 0.00868592
0.002057693 0.024866205 -0.0536601 0.20671718 0.16408129 0.053878337 0.23941779 0.11267577
0.10868519 0.2314859 0.27448276 0.12526007 0.20267323 0.15247676 -0.018915188 0.21034808
-0.007643667 -0.09275481 0.19068532 -0.15045778 -0.30364987 -0.34351942 0.070994854 0.15737483
-0.22165875 -0.47989893 0.010948146 -0.41449654 -0.31202573 -0.31295392 0.30799338 0.09235104
0.07174485 0.044957276 0.0030043547 -0.09620186 -0.3794119 -0.10794228 -0.07720508 -0.27665767
-0.29096666 -0.09287211 0.03073363 -0.39046457 0.05300727 -0.06758748 -0.15135233 0.23408507
0.2814427 -0.13940172 -0.08248588 -0.18960713 0.115406655 -0.13059986 0.000552114 -0.13641272
-0.035759773 -0.14849128 -0.06933413 -0.119406946 0.13674015 0.109135404 -0.06742759 0.00199534
0.09826494 -0.0678212 0.035964537 0.09614049 0.06376195 0.074572004 -0.1529633 -0.20136051
0.19145885 0.13043217 -0.045488343 0.15708265 0.12194182 0.013963636 0.20422211 -0.30648908
00000000: 0596 353e 88b6 cebd 3457 1e3e 14c1 af3d
00000010: a89b c3bd 0bda ffbd f560 5c3d cb45 8a3e
00000020: 5826 ed3b 841a 33bd 0f81 4dbd 7b1f 133e
00000030: ad12 75bd b788 21be 20e7 2bbd 644f 0e3c
00000040: 5cda 063b 36b4 cb3c b1ca 5bbd abad 533e
00000050: ed04 283e 88af 5c3d f029 753e 8ec2 e63d
00000060: 5796 de3d a40a 6d3e 0189 8c3e 2d44 003e
00000070: 9289 4f3e de22 1c3e 06f4 9abc 7d65 573e
00000080: ba77 fabb 3cf6 bdbd 0343 433e 9b11 1abe
00000090: ff77 9bbe c7e1 afbe c065 913d de26 213e
000000a0: 83fa 62be 50b5 f5be da5f 333c e438 d4be
000000b0: d6c1 9fbe 7f3b a0be 4fb1 9d3e 8b22 bd3d
000000c0: f7ee 923d 1f25 383d b5e4 443b 7b05 c5bd
000000d0: 4742 c2be d810 ddbd b21d 9ebd 13a6 8dbe
000000e0: 95f9 94be bc33 bebd 18c5 fb3c f9ea c7be
000000f0: 271e 593d 4e6b 8abd 1bfc 1abe ffb3 6f3e
00000100: 4219 903e 53bf 0ebe 5bee a8bd 5f28 42be
00000110: 535a ec3d f8bb 05be bebb 103a c7af 0bbe
00000120: d778 12bd 190e 18be 0dff 8dbd a18b f4bd
00000130: 9c05 0c3e 6282 df3d 7a17 8abd 40c4 023b
00000140: 213f c93d d7e5 8abd 8d4f 133d 4ee5 c43d
00000150: a095 823d 35b9 983d 69a2 1cbe 7331 4ebe
00000160: ca0d 443e 0390 053e fc51 3abd 46da 203e
00000170: a2bc f93d bcc7 643c 9a1f 513e 23ec 9cbe

encoder.fc.weight f4 [32, 64]
0.11480285 -0.03614487 -0.16887274 0.102201425 0.100032575 -0.056924697 -0.020659711 0.012997838
-0.25117013 -0.09168282 -0.0916069 0.07246541 0.009329476 -0.0077497726 0.051051613 -0.1402218
0.030627143 -0.24463582 0.06611801 -0.07392404 -0.027028512 0.045073584 -0.11750574 -0.14026804
-0.10941187 0.0038481853 -0.052745704 -0.19437166 -0.018807173 -0.21440612 -0.08293287 0.09954435
0.081660606 0.05126759 0.10372726 0.0021734696 0.04834093 0.00597402 0.035891943 -0.06009536
-0.040628947 -0.025946042 -0.052083805 0.01567166 0.08728121 -0.09632589 0.2089955 0.096480295
0.11696198 0.08583774 0.02621735 0.005589985 -0.07554912 -0.24076465 -0.11345953 0.0332802
-0.08003046 0.020331744 0.11670484 -0.006788273 0.066705406 0.24952336 0.06368018 0.05369062
0.099168174 -0.05428595 0.027797308 0.085565835 -0.018023577 -0.04001157 0.22296119 -0.1284688
0.03456429 -0.17767712 -0.081972934 -0.02261372 0.11310859 -0.084265396 -0.19052996 -0.10584462
-0.038796213 0.09429302 0.088512234 -0.095758304 0.105647005 -0.11393409 0.07887339 -0.027508419
-0.052544665 -0.10509587 0.0069233226 -0.06974427 0.011028582 -0.030734872 0.0415899 -0.025635093
-0.067437634 0.009262459 0.2013955 0.09379481 -0.022292983 0.034596004 -0.019735232 0.077200726
0.06363878 0.00039608884 -0.2599242 -0.10475048 -0.07576865 0.015086413 0.27175805 0.01312314
0.20278461 0.10792678 0.050963707 -0.0136132585 0.014651069 -0.23403782 -0.01651702 0.08904576
-0.061831933 -0.05547025 -0.09035374 -0.19542952 -0.048148062 -0.05193507 -0.08781797 -0.08191072
-0.0051504932 0.14150739 -0.12781236 -0.109042466 0.118544266 -0.006918985 -0.09814547 -0.034194198
-0.20396909 0.043101553 -0.08381282 0.046396453 -0.056462206 -0.04591819 -0.017379867 0.0023106234
0.092737414 -0.16189013 0.06358127 -0.0032926523 0.020460065 0.08955355 -0.007787415 -0.085561514
-0.07487831 0.073839456 -0.07316643 -0.16044647 0.082934454 -0.116249636 0.024551144 0.07870804
0.133678 -9.284464e-05 0.2416967 0.009182204 0.107349716 0.11750162 0.13101652 -0.015718188
-0.07734128 0.092728734 -0.24984689 0.098803625 -0.10638307 0.0985121 0.1610924 0.22287199
0.07992159 0.30398938 0.056484286 0.024239853 -0.12977779 -0.071592204 -0.15709512 -0.0081855375
-0.07533622 0.005398815 0.020482924 -0.07050252 0.08776389 0.02138327 0.07463415 0.11559635
0.017295197 0.07160166 -0.19619486 0.13627996 0.15396357 0.1255908 -0.14682248 0.11126937
-0.24011947 -0.15192816 -0.13846982 0.12273832 -0.14377223 0.04709978 0.023043495 0.025223223
0.23252931 0.007828109 0.12968959 -0.010675553 0.12818551 0.00591465 -0.06511913 0.000165762
0.09602677 0.0138102 -0.17060098 -0.06637542 0.02070369 -0.086461216 0.004824645 -0.061691348
0.1229733 -0.045281146 0.016945045 -0.10563823 0.15994935 -0.12964721 0.09564052 -0.24009289
0.2356503 -0.17285907 0.07345185 -0.028823422 0.15455304 -0.055546075 -0.16993089 0.12567405
0.04418255 0.010159851 0.06068894 -0.0006387149 0.2110232 0.044959128 -0.109931365 -0.033441313
-0.0026188027 -0.13412718 0.10754723 0.059864204 0.12337877 0.10818586 0.12569906 -0.0041633006
00000000: c21d eb3d a50c 14bd faec 2cbe fb4e d13d
00000010: e1dd cc3d df29 69bd 8e3e a9bc e2f4 543c
00000020: 5f99 80be 34c4 bbbd 669c bbbd bf68 943d
00000030: a9da 183c cef1 fdbb 7f1b 513d 4e96 0fbe
00000040: c6e5 fa3c d081 7abe e168 873d 7d65 97bd
00000050: e66a ddbc 149f 383d d9a6 f0bd 6da2 0fbe
00000060: 5513 e0bd d631 7c3b e10b 58bd 5d09 47be
00000070: 8011 9abc 478d 5bbe b5d8 a9bd e8dd cb3d
00000080: ad3d a73d f7fd 513d f56e d43d c570 0e3b
00000090: 2401 463d b6c1 c33b 6e03 133d 8d26 76bd
000000a0: 8a6a 26bd cb8c d4bc d455 55bd da61 803c
000000b0: 7ec0 b23d 8246 c5bd eb02 563e 7697 c53d
000000c0: c389 ef3d b2cb af3d c5c5 d63c 312c b73b
000000d0: 7fb9 9abd 028b 76be 785d e8bd d250 083d
000000e0: 03e7 a3bd c28e a63c f202 ef3d 2970 debb
000000f0: d89c 883d 0d83 7f3e c16a 823d b2ea 5b3d
00000100: af18 cb3d f25a 5ebd 2eb7 e33c 243d af3d
00000110: 2ea6 93bc 2ce3 23bd f04f 643e 538d 03be
00000120: 4993 0d3d fef0 35be 6de1 a7bd 6840 b9bc
00000130: 7aa5 e73d 5693 acbd 491a 43be 10c5 d8bd
00000140: c7e8 1ebd b31c c13d e745 b53d ee1c c4bd
00000150: 755d d83d 4756 e9bd 5f88 a13d 5659 e1bc
00000160: 1339 57bd 813c d7bd 0add e23b 15d6 8ebd
00000170: 3ab1 343c b3c7 fbbc 2c5a 2a3d b000 d2bc
00000180: be1c 8abd 92c1 173c 9f3a 4e3e 7e17 c03d
00000190: c69f b6bc 8ab4 0d3d c8ab a1bc 6a1b 9e3d
000001a0: 0c55 823d 25aa cf39 c914 85be 6b87 d6bd
000001b0: 982c 9bbd 012d 773c df23 8b3e 7002 573c
000001c0: c5a6 4f3e b708 dd3d 52bf 503d 250a 5fbc
000001d0: 0a0b 703c 9ca7 6fbe b44e 87bc a05d b63d
000001e0: 7b43 7dbd c634 63bd 620b b9bd ad1e 48be
000001f0: e736 45bd deb9 54bd e8d9 b3bd cfc0 a7bd
00000200: 78c5 a8bb 50e7 103e 3ee1 02be a851 dfbd
00000210: 56c7 f23d a7b8 e2bb 7e00 c9bd 370f 0cbd
00000220: 46dd 50be 418b 303d 0ea6 abbd 350a 3e3d
00000230: ea44 67bd b614 3cbd 3960 8ebc d46d 173b
00000240: 1ded bd3d 87c6 25be e636 823d 8ac9 57bb
00000250: de9b a73c da67 b73d 922d ffbb e03a afbd
00000260: cd59 99bd 2439 973d 48d8 95bd 144c 24be
00000270: 8ad9 a93d 4a14 eebd 7b1f c93c ae31 a13d
00000280: e3e2 083e 96b5 c2b8 577f 773e f470 163c
00000290: 2bda db3d b0a4 f03d 3229 063e 6ec3 80bc
000002a0: 1b65 9ebd 90e8 bd3d ddd7 7fbe 8e59 ca3d
000002b0: 5edf d9bd b6c0 c93d 68f5 243e 8e38 643e
000002c0: eead a33d 7fa4 9b3e 115c 673d a892 c63c
000002d0: 78e4 04be ef9e 92bd 8bdd 20be a21c 06bc
000002e0: e049 9abd 8be8 b03b cecb a73c a063 90bd
000002f0: 8ebd b33d f82b af3c cad9 983d c7bd ec3d
00000300: a8ae 8d3c e4a3 923d 4ee7 48be f98c 0b3e
00000310: a0a8 1d3e e09a 003e a258 16be 32e1 e33d
00000320: e1e1 75be 0e93 1bbe 08cb 0dbe 3a5e fb3d
00000330: 0739 13be b3eb 403d b6c5 bc3c efa0 ce3c
00000340: 2a1c 6e3e 7841 003c 59cd 043e 84e8 2ebc
00000350: 1043 033e aecf c13b 2e5d 85bd 66d0 2d39
00000360: afa9 c43d 2d44 623c 06b2 2ebe d6ef 87bd
00000370: c99a a93c 9412 b1bd 0e18 9e3b 11b0 7cbd
00000380: 6dd9 fb3d b978 39bd 56d0 8a3c db58 d8bd
00000390: c3c9 233e 3dc2 04be 2ddf c33d e9da 75be
000003a0: 504e 713e f801 31be ec6d 963d 191f ecbc
000003b0: 2743 1e3e 4884 63bd 5d02 2ebe b3b0 003e
000003c0: c3f8 343d 8175 263c f794 783d 6e6f 27ba
000003d0: 7716 583e 1027 383d b223 e1bd c2f9 08bd
000003e0: 38a0 2bbb a358 09be b941 dc3d 2b34 753d
000003f0: 02ae fc3d 8c90 dd3d 41b7 003e 4c6c 88bb

encoder.fc.bias f4 [32]
-0.10865792 -0.008894219 0.042488907 0.05678098 0.034740638 0.044302233 -0.14333144 0.14399467
-0.05813926 0.07700412 0.11594637 0.13644098 -0.13666748 0.026123008 -0.08060864 -0.016646922
-0.04219833 -0.040246636 -0.10766308 -0.09547254 0.0838208 -0.06497134 -0.027904546 0.022472342
0.06741395 0.00046847426 -0.13122877 -0.07175718 0.017497452 -0.12727572 -0.072991 0.17445539
00000000: 0b88 debd 0fb9 11bc d908 2e3d 2c93 683d
00000010: 334c 0e3d 4276 353d 7ac5 12be 5773 133e
00000020: 6f23 6ebd 56b4 9d3d 4a75 ed3d 2fb7 0b3e
00000030: 8ff2 0bbe ebff d53c 2516 a5bd 205f 88bc
00000040: 28d8 2cbd a8d9 24bd 767e dcbd 1b87 c3bd
00000050: 3daa ab3d b20f 85bd 1398 e4bc eb17 b83c
00000060: 5310 8a3d 8d9d f539 d660 06be 6ef5 92bd
00000070: d156 8f3c 9154 02be 4e7c 95bd 6fa4 323e

decoder.attention.v f4 [32]
0.40099543 0.75056547 0.48526868 0.7311276 0.7645257 0.6734643 0.47330314 0.83281994
0.9524262 0.6966959 0.47529283 1.0272411 0.54205656 0.5840505 1.13608 1.2292131
1.2962915 0.65541613 1.068797 0.43716142 1.2944745 0.26352972 0.70375407 1.1345228
0.40406704 1.4075984 0.69584084 0.63683075 0.38586083 1.1155936 0.42894194 0.5299771
00000000: 464f cd3e 0f25 403f 2375 f83e 2e2b 3b3f
00000010: f5b7 433f 2868 2c3f ca54 f23e b033 553f
00000020: 34d2 733f aa5a 323f 9559 f33e a37c 833f
00000030: 38c4 0a3f 5584 153f 126b 913f db56 9d3f
00000040: e1ec a53f 5ac9 273f 57ce 883f 9fd3 df3e
00000050: 57b1 a53f 5eed 863e 3a29 343f 0b38 913f
00000060: e0e1 ce3e 2f2c b43f a022 323f 5707 233f
00000070: 8d8f c53e c5cb 8e3f 479e db3e 94ac 073f
